app/src/main/assets/tflite_learn_5.tflite (tflite, 48216 bytes, 42 tensors)

model_1/bn_Conv1/FusedBatchNormV3 f4 [8]
0	0x4045b0a2	3.0889058
1	0x3e43f9c3	0.19138245
2	0x4072f077	3.7959268
3	0x3ec1736e	0.37783378
4	0x3fdb4544	1.7130513
5	0x40614a18	3.5201473
6	0x3e104e68	0.1409241
7	0x40382cc4	2.8777323

model_1/expanded_conv_depthwise_BN/FusedBatchNormV3 f4 [8]
0	0x3ee2f472	0.44327122
1	0x3c08de3d	0.008353767
2	0x3f1fe838	0.6246371
3	0x3f8069de	1.0032308
4	0x401890a0	2.3838272
5	0xbdc56c9a	-0.09639855
6	0x3ec4b24f	0.3841729
7	0xbeafb11c	-0.3431481

model_1/block_1_expand_BN/FusedBatchNormV3 f4 [48]
0	0xbebdcc52	-0.37069947
1	0xc0269ae1	-2.603203
2	0x3f5b988a	0.8577963
3	0x3f8b5256	1.0884502
4	0x4048c56b	3.1370494
5	0x40136dff	2.3035886
6	0x402ab6fe	2.667419
7	0x3e19b6ec	0.15011185
8	0xbf87f6e1	-1.0622216
9	0xc0381ca7	-2.8767488
10	0x3f3a2f58	0.7272849
11	0x3f952454	1.1651711
12	0x3fb93098	1.4467955
13	0xc0892ea4	-4.2869434
14	0xbcfd0870	-0.030887812
15	0x3e9f2fd0	0.31091166
16	0xbffbca0e	-1.9671037
17	0xbefba736	-0.4915101
18	0x3f3dba94	0.7411282
19	0x3fc32dc8	1.5248346
20	0x3faa8bf9	1.3323966
21	0x40829853	4.0810943
22	0x3e97e834	0.29669344
23	0x3ea32b0e	0.31868786
24	0x40287568	2.632166
25	0x400362a0	2.0528946
26	0x40845180	4.1349487
27	0xc06237ab	-3.5346477
28	0x3ff36d9d	1.9017826
29	0xbebe6a14	-0.37190306
30	0xbe068e64	-0.13140255
31	0xc082718d	-4.076361
32	0x400ea9c5	2.229112
33	0x4016a894	2.3540392
34	0x4064b8ed	3.573787
35	0xbf82b031	-1.0210019
36	0xc092bff0	-4.58593
37	0xbdd17684	-0.10227683
38	0xc0818fc6	-4.0488005
39	0xbea992a2	-0.33119684
40	0xc086b83b	-4.209989
41	0xc022733b	-2.538283
42	0xbf12f148	-0.57399416
43	0x3f7d3be5	0.98919517
44	0x3f90ac1a	1.1302521
45	0xc052a5bb	-3.2913654
46	0x3eb65061	0.356082
47	0xbf678488	-0.904366

model_1/block_1_depthwise_BN/FusedBatchNormV3 f4 [48]
0	0x3e9e58b8	0.30927062
1	0xbdf6f870	-0.120591044
2	0x3e9dba31	0.30806115
3	0xbf732726	-0.9498161
4	0x3f8a2cce	1.0794923
5	0x3f18b50a	0.59651244
6	0xbd85a088	-0.065247595
7	0x3fdec31d	1.7403294
8	0x3f30a9b4	0.69008946
9	0xbe8aa3eb	-0.27078184
10	0xbe5d0ac0	-0.21586132
11	0x3f012f0c	0.5046241
12	0x3e6fe98f	0.2342894
13	0xbe67676a	-0.22598043
14	0xbc503ee0	-0.012710303
15	0x402cae1b	2.6981266
16	0x3ff0fd98	1.8827391
17	0x3dc980e3	0.09839036
18	0xbdcca446	-0.0999227
19	0x4063947d	3.555938
20	0xbef6afb5	-0.4818093
21	0x3fd49c12	1.6610129
22	0xbeb441a8	-0.35206342
23	0x3e1519f0	0.14560676
24	0xbc854630	-0.01626882
25	0xc0b43e40	-5.632599
26	0x3f8dc42c	1.1075492
27	0xbeb38d1c	-0.35068595
28	0x3ebdd648	0.37077546
29	0xbe667009	-0.22503676
30	0x3da0e648	0.07856423
31	0x3f71893a	0.94350016
32	0xbedd9462	-0.4327727
33	0x3e5543e7	0.20826684
34	0x3ec1b77c	0.378353
35	0x3d240338	0.040042132
36	0x3f9b421c	1.212955
37	0xbe0dcc56	-0.13847479
38	0x3d5eba80	0.05437708
39	0xbeb1b5a9	-0.34708908
40	0x3ea6adbe	0.3255443
41	0x3de9ef60	0.1142261
42	0x3f99d700	1.2018738
43	0xbf9b71b2	-1.2144072
44	0xbf1a5c77	-0.6029734
45	0x3d416176	0.047212087
46	0x3fc83c44	1.5643392
47	0xbd21b62e	-0.03948038

model_1/block_2_expand_BN/FusedBatchNormV3 f4 [48]
0	0x3f64cb0e	0.89372337
1	0x3f04f913	0.5194256
2	0x3f36ca8b	0.71402806
3	0x3f824aa0	1.0179024
4	0x3eb76604	0.3582002
5	0x3f395f80	0.72411346
6	0x3f1e9f2c	0.61961627
7	0x3f0cb3f6	0.549621
8	0x3f01a48f	0.5064172
9	0x3f4311ac	0.7619884
10	0x3f4197d0	0.7562227
11	0x3f256034	0.6459992
12	0x3f4de179	0.8042217
13	0x3ed0a52b	0.40751013
14	0x3f210bd1	0.62908655
15	0xbab4382a	-0.0013749648
16	0x3e0e16cd	0.13875885
17	0xbf4d5fac	-0.8022411
18	0x3f6a7770	0.915885
19	0x3f83ee4d	1.0307099
20	0x3f317f79	0.6933513
21	0x3f5b639d	0.8569887
22	0x3f63f69e	0.8904818
23	0x3e350a38	0.1767968
24	0x3f1beec7	0.6091122
25	0x3f7bfada	0.98429644
26	0x3f30111a	0.68776095
27	0xbcb230e7	-0.021751834
28	0xbee4e4f0	-0.44705915
29	0x3f674dcc	0.90353084
30	0x3f669443	0.9006998
31	0x3f473a0e	0.7782296
32	0x3f2ef99d	0.6834963
33	0x3ea0a8bd	0.31378737
34	0x3f14dc4a	0.58148634
35	0xbe2a5e80	-0.16637611
36	0x3e56ee41	0.20989324
37	0x3ed36d37	0.41294262
38	0xbafb3ea9	-0.0019168454
39	0x3f30352f	0.6883115
40	0x3ec4a1f4	0.3840481
41	0x3f5f41d9	0.8720985
42	0x3ec35a04	0.38154614
43	0x3e347fc8	0.1762687
44	0x3f057a6d	0.5213993
45	0x3ef85cdc	0.48508346
46	0xbd363566	-0.04448452
47	0x3f83dae1	1.0301172

model_1/block_2_depthwise_BN/FusedBatchNormV3 f4 [48]
0	0x3ff71a1f	1.9304847
1	0x3fa08e38	1.2543402
2	0xbf04acce	-0.5182618
3	0x3fd4d8ad	1.6628624
4	0xbe51bf37	-0.20483099
5	0xbea2a2a4	-0.3176471
6	0x3f118b52	0.5685321
7	0xbeeae15d	-0.45875064
8	0x3d9fb460	0.07798076
9	0x3f89bd0f	1.0760821
10	0x3e89f332	0.26943356
11	0xbd8bc2a8	-0.06824237
12	0xbf6ea7e5	-0.93224937
13	0x400662b7	2.099775
14	0x3f34ffbc	0.7070272
15	0xbebde4c8	-0.3708861
16	0xbef3fcf4	-0.47653925
17	0xbf2b99db	-0.6703164
18	0xbdd34ed2	-0.10317768
19	0x3dfee5cc	0.12446174
20	0x3f86a735	1.0519778
21	0x3f2f65dd	0.68514806
22	0xbfcf1074	-1.6176896
23	0x3d5fd42e	0.05464571
24	0xbfa2a6d4	-1.2707162
25	0x3de4a1de	0.11163686
26	0x3e8d93a8	0.27651715
27	0x3e83da6b	0.25752577
28	0xbf30048a	-0.68756926
29	0xbeacb717	-0.33733436
30	0xbefea1dc	-0.49732864
31	0x3e26970f	0.16268562
32	0x3f85df6e	1.045881
33	0xbe76da1e	-0.24106643
34	0xbe124209	-0.14283003
35	0x3f7af0fc	0.9802396
36	0xbe94c3a5	-0.29055515
37	0x3e939c5c	0.2883023
38	0xbf3175d4	-0.69320416
39	0x3f326642	0.69687283
40	0x3f7c62d6	0.9858831
41	0x3df3d390	0.11905587
42	0x3f014842	0.5050088
43	0x3d865fd4	0.065612465
44	0xbde89702	-0.113569275
45	0xbe2930d9	-0.1652254
46	0xbf2303d4	-0.63677716
47	0x401e3f46	2.472612

model_1/block_3_expand_BN/FusedBatchNormV3 f4 [48]
0	0x3e943727	0.28948328
1	0x3f3bdbf8	0.7338252
2	0x3f04e854	0.51917005
3	0xbd4ae281	-0.049532417
4	0xbe5db239	-0.21650018
5	0x3d8cda05	0.068775214
6	0x3f59b25f	0.850378
7	0x3f22684f	0.6344041
8	0x3f0c5086	0.5481037
9	0xbf04a867	-0.5181946
10	0x3ed894f5	0.42301145
11	0xbc70571c	-0.014669206
12	0x3f2e5d3e	0.68111026
13	0xbbf3fa7a	-0.0074456306
14	0x3ee4d09b	0.44690403
15	0xbec45145	-0.38343254
16	0xbd991193	-0.07474055
17	0x3f29424b	0.6611678
18	0x3e93c95c	0.28864563
19	0x3e9fcd1d	0.31211177
20	0xbe7da01c	-0.24768108
21	0x3fcb3c8c	1.5877852
22	0x3eba0e1d	0.36338893
23	0xbe9c459c	-0.30521858
24	0x3e756fd8	0.23968446
25	0x3f49897d	0.78725415
26	0x3f2871cc	0.6579864
27	0xbec2bb87	-0.38033697
28	0x3dff02ea	0.12451728
29	0x3d3b3aa8	0.045710236
30	0xbeffcdd9	-0.49961737
31	0xbeb24f89	-0.34826306
32	0x3f3938e4	0.72352433
33	0x3eafa168	0.3430283
34	0x3f62335c	0.8835962
35	0x3f7cab28	0.98698664
36	0x3f64c22c	0.8935878
37	0x3f59be88	0.8505635
38	0xbf22782d	-0.63464624
39	0xbea9dea0	-0.33177662
40	0xbe7adfda	-0.24499455
41	0x3f02518c	0.5090568
42	0x3e9e3241	0.30897716
43	0x3e367afd	0.17820354
44	0xbec70aae	-0.38875335
45	0xbef5dcd4	-0.4802004
46	0x3f1c8ac3	0.61149234
47	0x3e44f160	0.19232702

model_1/block_3_depthwise_BN/FusedBatchNormV3 f4 [48]
0	0x3fb4c951	1.4123937
1	0x40020408	2.031496
2	0x3f91a4eb	1.1378454
3	0x3f8fa2ea	1.1221592
4	0x3f5eae43	0.8698465
5	0x3f828e15	1.019961
6	0x401914a1	2.391884
7	0x3fd95d58	1.6981611
8	0x40074036	2.1132941
9	0xbe2bbec8	-0.16771996
10	0xbd039430	-0.032123744
11	0x3fa1e940	1.2649307
12	0x40010101	2.0156863
13	0xbe343eee	-0.17602131
14	0x3f8a2c32	1.0794737
15	0xbb795c80	-0.003804952
16	0x3dcb7e58	0.099362075
17	0x40042a11	2.0650675
18	0x3f8b6d4f	1.0892733
19	0xbe047bc0	-0.12937832
20	0x3e9ae4af	0.30252597
21	0xc02b45cb	-2.6761348
22	0xbe68251e	-0.22670409
23	0x3d80e038	0.06292766
24	0x3fe60402	1.7969973
25	0x401c4a02	2.442017
26	0xbeb7a920	-0.3587122
27	0xbd0fa0a0	-0.035065293
28	0xbdf58c60	-0.11989665
29	0x3fa64da8	1.2992449
30	0xbe9ebca2	-0.3100329
31	0x3ec0254e	0.3752846
32	0xbf88fcd6	-1.070216
33	0x3fbc8098	1.4726744
34	0x4017f6ae	2.3744311
35	0x4080f515	4.0299172
36	0x400fbdb7	2.2459543
37	0x4047a0fc	3.1192007
38	0xbdc46417	-0.09589403
39	0xbccff600	-0.025385857
40	0x3f8911e8	1.070859
41	0x3fc6cb18	1.5530729
42	0xbd797000	-0.060897827
43	0xbbe86800	-0.007092476
44	0xbe4787a8	-0.19485343
45	0xbea03341	-0.31289104
46	0x3fb8d0ea	1.4438756
47	0x3f9467e8	1.159421

model_1/block_4_expand_BN/FusedBatchNormV3 f4 [48]
0	0x3f894dbf	1.0726851
1	0xbdd183d3	-0.102302216
2	0x3ee82c85	0.45346466
3	0x3eb9d15d	0.36292544
4	0x3f27c6c0	0.65537643
5	0x3e364a23	0.17801718
6	0x3f1dc08f	0.61621946
7	0xbe65774e	-0.22408792
8	0x3f79a32b	0.975146
9	0x3f3ea029	0.74463135
10	0xbe126d56	-0.14299521
11	0xbd574402	-0.05255509
12	0x3f026145	0.5092967
13	0x3eb37c14	0.35055602
14	0x3d7c6132	0.06161613
15	0x3f269706	0.65074193
16	0x3ef500b3	0.47852096
17	0x3f37d4f8	0.7180934
18	0xbeb99dc1	-0.3625317
19	0xbda028ab	-0.07820257
20	0x3f3289d4	0.6974156
21	0x3eba3569	0.36368874
22	0x3f2a8728	0.6661248
23	0x3d079972	0.03310532
24	0x3f1e293c	0.6178167
25	0x3f24f2b6	0.6443285
26	0x3f663da8	0.8993783
27	0xbe6a6e0e	-0.22893545
28	0x3f5bf585	0.8592151
29	0xbc9cde9d	-0.019149119
30	0x3f431f9c	0.7622011
31	0x3f2db5b7	0.678554
32	0x3f68cd89	0.9093862
33	0x3de8a8b5	0.11360303
34	0x3ea06e37	0.31334087
35	0x3f1d6faa	0.6149851
36	0x3f24acda	0.6432625
37	0x3eef5eb9	0.46751955
38	0x3efc465b	0.49272427
39	0x3e77690f	0.2416117
40	0xbcffac1e	-0.031210002
41	0x3f2c8242	0.6738626
42	0x3f51ed97	0.8200316
43	0x3f3792b3	0.7170822
44	0x3f6e5745	0.9310191
45	0x3ea40be7	0.3204033
46	0x3d1a63a2	0.037692674
47	0x3f2698c8	0.65076876

model_1/block_4_depthwise_BN/FusedBatchNormV3 f4 [48]
0	0x3f78a71c	0.9712999
1	0x3f7a12c4	0.97684884
2	0x3f58e50a	0.84724486
3	0x3fa50af2	1.2893965
4	0x3fe5d777	1.795638
5	0xbf0b4abe	-0.5441092
6	0xbea30fd1	-0.31848004
7	0x3d512ec0	0.051069975
8	0xbf3187e0	-0.69347954
9	0xbfe91954	-1.8210855
10	0xbe418287	-0.18897448
11	0xbe564f04	-0.2092858
12	0x3f8ac773	1.0842117
13	0x3f762089	0.96143395
14	0x3fee7831	1.863043
15	0xbe65c446	-0.22438154
16	0x3f785004	0.96997094
17	0x3fa2f381	1.2730561
18	0x3e258086	0.16162309
19	0xbf81b78a	-1.0134137
20	0x3f15d7ca	0.5853239
21	0xbf020ea4	-0.5080359
22	0x3fabbd9c	1.3417239
23	0x3d1037f4	0.03520961
24	0x3f4ab1f1	0.7917777
25	0x3f8fc558	1.12321
26	0x3e02497e	0.12723348
27	0x3e2ed49e	0.17073295
28	0xbe9f216b	-0.31080183
29	0x3ebb6e46	0.3660757
30	0x3fdd9134	1.7309937
31	0x3f04fce1	0.5194836
32	0x3f146284	0.5796282
33	0xbfda4bc3	-1.7054371
34	0x3e1cd1d3	0.15314417
35	0xbe406246	-0.18787488
36	0x3fedcb38	1.8577642
37	0x3f174162	0.5908414
38	0x3c3bcb04	0.011461977
39	0xbc863ea1	-0.016387286
40	0x3f93f150	1.1558018
41	0xbf97a022	-1.1845744
42	0x3fbde59c	1.4835696
43	0xbe854d85	-0.26035705
44	0xbe9f0682	-0.31059653
45	0x3f231fac	0.637202
46	0x3fbcf59f	1.4762458
47	0xbf0a2a61	-0.53970915

model_1/block_5_expand_BN/FusedBatchNormV3 f4 [48]
0	0xbe96a632	-0.29423672
1	0xbef5f613	-0.48039302
2	0x3f2f1fd8	0.68407965
3	0xbe12a0d5	-0.14319165
4	0xbf0153c5	-0.5051845
5	0x3e8515c5	0.2599317
6	0x3f0dbed4	0.55369306
7	0x3f9db4e9	1.2320834
8	0x3ea466f9	0.32109812
9	0x3f1d6e60	0.61496544
10	0x3f54e44f	0.8316087
11	0x3ec5e4f6	0.38651246
12	0x3ea2b12d	0.317758
13	0x3f5ce009	0.8627935
14	0x3f360be3	0.7111189
15	0xbef0250a	-0.4690326
16	0x3f856ca9	1.0423785
17	0x3e9acd51	0.3023477
18	0x3e81250f	0.25223586
19	0xbf2017ee	-0.62536514
20	0xbb51e5ba	-0.0032027797
21	0xbdd60286	-0.104497
22	0x3eae829e	0.34084028
23	0x3f7a5bab	0.97796124
24	0x3e7ae569	0.24501576
25	0x3f2897e4	0.65856767
26	0x3f1f7242	0.6228372
27	0x3b2fdabd	0.002683326
28	0x3f07eff0	0.5310049
29	0x3d873671	0.06602181
30	0x3e782d9e	0.24236152
31	0xbebecd2a	-0.37265903
32	0xbed8658d	-0.42264977
33	0xbe8f1076	-0.27942246
34	0xbf01742e	-0.505679
35	0x3ed2917f	0.4112663
36	0x3ee81b19	0.45333174
37	0x3ee23a53	0.44185123
38	0x3ef93c55	0.48678842
39	0x3efbd489	0.4918559
40	0x3f283f6a	0.6572176
41	0x3e4d9e9f	0.2008004
42	0x3f2c8790	0.6739435
43	0x3ef668d5	0.48126855
44	0x3f632b3d	0.8873785
45	0x3f2da549	0.6783033
46	0xbe77e2a1	-0.24207546
47	0x3e8350b4	0.2564751

model_1/block_5_depthwise_BN/FusedBatchNormV3 f4 [48]
0	0xbd898d74	-0.06716433
1	0xbf3bb1e1	-0.73318297
2	0xbe803050	-0.2503686
3	0xbeb6bd4e	-0.35691303
4	0xbd6d0bb0	-0.057872474
5	0xbe411620	-0.18856096
6	0x3ef00996	0.46882313
7	0x40a711df	5.2209315
8	0xbfb60201	-1.4219362
9	0x3f8b1299	1.086505
10	0x3fb3d28b	1.4048628
11	0xbf2b15ce	-0.66830146
12	0x3f8824b4	1.0636201
13	0xbed0dab6	-0.40791863
14	0x3fbaf164	1.4604917
15	0xbe1985bb	-0.1499242
16	0x3eaa71d0	0.33289957
17	0x3f1066ee	0.5640706
18	0x3e482874	0.19546682
19	0xbf067f45	-0.5253795
20	0xbf4bfcfa	-0.79682887
21	0xbe87bc66	-0.26510924
22	0xbfaa5141	-1.3306047
23	0x3ec70802	0.38873297
24	0x3f5f7a32	0.8729583
25	0xbe2ea760	-0.17056036
26	0x3ea21a64	0.3166076
27	0x3eb9ce00	0.36289978
28	0x3f82d469	1.0221072
29	0x3e8a0f9f	0.26965043
30	0x3f96c972	1.1780226
31	0xbf0bd07d	-0.54615
32	0xbfbf7edc	-1.496059
33	0xbdb8d4e4	-0.09024981
34	0xbf749619	-0.9554153
35	0xbf12bf8e	-0.5732354
36	0x3e95f3f1	0.29287675
37	0x3f8fd2b5	1.1236178
38	0xbf8bb22d	-1.091375
39	0x3fcb33be	1.5875165
40	0x3e544670	0.20729995
41	0x3dc2eb6e	0.09517561
42	0xbf0cfa12	-0.55069077
43	0xbf093e96	-0.53611124
44	0xbfb81b91	-1.4383413
45	0x3f6ec917	0.9327559
46	0xbd60a770	-0.05484718
47	0x3f740836	0.9532503

model_1/block_6_expand_BN/FusedBatchNormV3 f4 [48]
0	0xbd2182c2	-0.03943134
1	0x3eb8e9c7	0.36115858
2	0x3ea477c7	0.32122633
3	0x3f0f2b7e	0.5592574
4	0x3f6fa2f1	0.93608004
5	0xbe0777e8	-0.13229334
6	0xbe9d94af	-0.307775
7	0x3f74b9f8	0.95596266
8	0x3ea076d8	0.3134067
9	0x3f548f63	0.8303129
10	0x3dea1efa	0.114316896
11	0xbeb23d5b	-0.34812436
12	0x3f2d7b84	0.67766595
13	0xbf1cb98a	-0.6122061
14	0x3f2eeb06	0.6832737
15	0xbe918fb4	-0.2842995
16	0xbb344773	-0.0027508407
17	0xbdd18de2	-0.1023214
18	0x3e51bd7a	0.20482436
19	0x3f11a8f6	0.5689844
20	0x3f30747f	0.6892776
21	0x3ee8eb79	0.4549215
22	0x3f2ba976	0.6705545
23	0x3e3afccc	0.18260497
24	0xbf027a04	-0.5096743
25	0xbeca63db	-0.3952931
26	0x3ddbf9a5	0.10740975
27	0x3f0e2a2d	0.55533105
28	0x3e90714e	0.28211445
29	0x3f2004b2	0.62507164
30	0xbe0a57c1	-0.13510038
31	0x3f1af110	0.6052408
32	0x3f39c211	0.72561747
33	0x3f4a2e6c	0.78977084
34	0x3eeaf6d2	0.45891434
35	0x3e87313a	0.26404744
36	0x3f68d160	0.9094448
37	0x3e85d110	0.26136065
38	0x3e08ccc0	0.13359356
39	0xbe3fab2e	-0.18717644
40	0x3e2d052a	0.16896501
41	0x3f7aac75	0.979194
42	0xbe3590dc	-0.1773104
43	0x3e633597	0.22188412
44	0x3f5ce000	0.86279297
45	0xbb916976	-0.0044376208
46	0x3e9860aa	0.2976125
47	0x3f53b2fc	0.82694983

model_1/head/BiasAdd/ReadVariableOp f4 [32]
0	0xbc9c4c82	-0.01907945
1	0x3cf807fb	0.030277243
2	0xbcd8c6bc	-0.026461951
3	0x3d068337	0.03283998
4	0x3cf697e9	0.030101733
5	0x3d40b9b1	0.04705209
6	0x3d8e4d4a	0.069483355
7	0x3d00b2c6	0.03142049
8	0x3d0d73a2	0.034534104
9	0xbc9e4611	-0.01932052
10	0x3d099119	0.03358564
11	0xbd02df2d	-0.03195112
12	0xbce2c9ac	-0.027684055
13	0x3c12355a	0.008923853
14	0x3d1272d3	0.035754036
15	0x3cd83507	0.026392473
16	0x3aa323b1	0.001244655
17	0xbbb6b9e6	-0.00557636
18	0x3d2698fd	0.040673245
19	0x3cec51c0	0.028847575
20	0x3bebd240	0.0071966946
21	0x3d05ad18	0.03263578
22	0x3d3009d1	0.04297811
23	0x3bd513da	0.0065026106
24	0x3d1b972d	0.03798597
25	0xbb3d233a	-0.0028860108
26	0x3d74b7f7	0.059745755
27	0xbc883484	-0.016626604
28	0x3d92d04d	0.071686365
29	0xbcf1bf1c	-0.029510073
30	0x3ce8fd68	0.028441146
31	0xbced5b2c	-0.028974138

model_1/expanded_conv_depthwise_BN/FusedBatchNormV3;model_1/expanded_conv_depthwise/depthwise;model_1/block_5_project/Conv2D f4 [1, 3, 3, 8]
0	0xbd7ce5bb	-0.061742526
1	0xbddcb9a4	-0.10777596
2	0x3cff8707	0.031192316
3	0xbd209aa6	-0.039209984
4	0xba922571	-0.0011150074
5	0x3e8113d9	0.25210455
6	0x3d82e0ac	0.06390509
7	0x3b47ac63	0.003046774
8	0x3d859219	0.065220065
9	0xbd54d5b7	-0.051961627
10	0x3d0de21c	0.034639463
11	0xbe3f71ea	-0.18695799
12	0x3de1a3e8	0.11017591
13	0x3f8e72d0	1.1128788
14	0x3ea5ed6f	0.3240771
15	0x3ee246e4	0.4419471
16	0x3d0e9ae8	0.0348157
17	0x3b2c4749	0.0026287606
18	0x3d322574	0.04349275
19	0xbe60bde3	-0.21947436
20	0xbc6b5825	-0.014364277
21	0x3e14da22	0.14536336
22	0x3e461754	0.19344836
23	0x3ce44ff7	0.027870161
24	0x3ceec516	0.029146712
25	0xc01fe6ff	-2.498474
26	0xbd53ed1e	-0.051739804
27	0x3d7911ad	0.060807873
28	0xbe0503fd	-0.12989803
29	0xbd075f1f	-0.0330497
30	0xc005078b	-2.0785854
31	0x3bb604b6	0.005554761
32	0xbeda8602	-0.42680365
33	0x3ff6bf54	1.9277139
34	0xbf032954	-0.51234937
35	0x4028eebc	2.6395712
36	0xbf929115	-1.1450526
37	0xbd56a701	-0.05240536
38	0x40221241	2.5323641
39	0xbdc8a736	-0.09797518
40	0x3d625a1a	0.05526171
41	0xbce525bd	-0.027972097
42	0xbcf965fa	-0.030444134
43	0xbfb3f5ed	-1.4059426
44	0xbd75ab9c	-0.059978113
45	0x3c9dfcdf	0.019285617
46	0x3f7f716c	0.99782443
47	0xbd721dc5	-0.05911042
48	0x3d8963ea	0.0670851
49	0xbd0e8e60	-0.034803748
50	0x3a79f5b8	0.0009535211
51	0xbda48570	-0.08033264
52	0xbbc245fa	-0.005928752
53	0xbe3d990a	-0.18515411
54	0x3e309727	0.1724516
55	0x3b3207a8	0.0027165208
56	0x3e573535	0.2101639
57	0xbd7bd09a	-0.061478235
58	0x3f4406d7	0.76572937
59	0xbeeec26a	-0.466327
60	0x3dfd57a0	0.12370229
61	0xbf79015c	-0.972677
62	0x3d916d08	0.07100874
63	0x3d4ba3dd	0.04971682
64	0x3d2891fc	0.041154847
65	0xba3116ad	-0.0006755393
66	0xbd2926b1	-0.041296665
67	0xbe425290	-0.18976808
68	0xbd032d32	-0.032025523
69	0xbe320951	-0.17386366
70	0x3c6eed8a	0.014583001
71	0x3c2c5c89	0.010520109

model_1/expanded_conv_project_BN/FusedBatchNormV3 f4 [8]
0	0x3e9939f1	0.29927018
1	0x3e61df06	0.22057733
2	0xbe02ebb2	-0.12785223
3	0xbfc228d4	-1.516871
4	0x3cb7d4bc	0.022440307
5	0xbe0d126d	-0.1377656
6	0xbe6571f7	-0.22406755
7	0x3f5c6de4	0.8610518

model_1/block_1_depthwise_BN/FusedBatchNormV3;model_1/block_1_depthwise/depthwise;model_1/block_6_expand/Conv2D f4 [1, 3, 3, 48]
0	0x3e854d97	0.2603576
1	0xbe7f66ff	-0.24941634
2	0xc0257b16	-2.5856376
3	0xc05bc6b1	-3.4340022
4	0x3df431cd	0.11923561
5	0xbf31b66b	-0.6941897
6	0x3e7991aa	0.24371973
7	0xbf27a5e8	-0.6548753
8	0x3eeb9df2	0.4601894
9	0x3ed9e637	0.42558452
10	0x3e6931e9	0.22772945
11	0x3f80b8a6	1.005635
12	0xc03007e1	-2.750481
13	0x3edca400	0.43093872
14	0x3e81dfc0	0.2536602
15	0xc1dc30ab	-27.523764
16	0x3eeb798a	0.45991164
17	0xbf486243	-0.78274935
18	0x3d03bd6a	0.03216306
19	0xbe704aed	-0.23466082
20	0xc0365f97	-2.8495843
21	0xbe5b99b2	-0.21445349
22	0x3ebd56b6	0.36980218
23	0x3ed81ac9	0.42207935
24	0xbdd7cc55	-0.1053702
25	0x4001e69a	2.0296998
26	0xbd31f773	-0.043448877
27	0x3f6a8eb2	0.91623986
28	0xc11255de	-9.145964
29	0xbf2211eb	-0.6330859
30	0x3f224f54	0.63402295
31	0xbea998cf	-0.33124396
32	0xbfd55654	-1.666697
33	0xbf9dae96	-1.2318904
34	0x3eac8dc7	0.33701918
35	0x3f8744e8	1.0567904
36	0xbf431554	-0.7620442
37	0x3e18a158	0.14905298
38	0x3f0990c2	0.5373651
39	0x3f4112f3	0.7541954
40	0xbf0a3871	-0.5399237
41	0xbfebb32e	-1.8414056
42	0xbe23e81e	-0.16006514
43	0x3e8b39d5	0.2719256
44	0xc002f604	-2.0462656
45	0xbf4a3496	-0.7898649
46	0x3f69435d	0.91118413
47	0xbfc8f05e	-1.5698354
48	0x3e475079	0.19464292
49	0xbecde5d0	-0.40214396
50	0x40333bd0	2.8005257
51	0x40a284a4	5.0786915
52	0x3ee0d337	0.43911144
53	0x3e6327d5	0.22183163
54	0x3efd5570	0.49479246
55	0xbfe1fb4d	-1.7654816
56	0xbf02906e	-0.5100163
57	0x3fd437f4	1.6579576
58	0x3e1f4f7a	0.15557662
59	0x3fbedcdc	1.4911151
60	0xbd36cb26	-0.04462733
61	0x3ed2b69b	0.41154942
62	0x3e8a1cc5	0.26975074
63	0x41cbc8d0	25.473053
64	0x3eee6172	0.4655872
65	0xbf42191f	-0.7581958
66	0xbfbaad8d	-1.4584213
67	0xbe995e9f	-0.29955003
68	0x40031de6	2.0486999
69	0xbed09c95	-0.40744463
70	0x3f0393d5	0.5139745
71	0xbc609045	-0.013706272
72	0x3f64a00e	0.89306724
73	0x40679ee0	3.619072
74	0xbe2c3642	-0.16817573
75	0x3f8ec72a	1.115453
76	0x3f079a11	0.5296946
77	0x3f60199b	0.8753907
78	0x3f1104ac	0.56647754
79	0xbe63a0c5	-0.22229297
80	0x4006ec3c	2.1081686
81	0x4004bc60	2.0739975
82	0x3f7edb07	0.9955296
83	0x3fcd21a4	1.6025891
84	0xbf101661	-0.5628415
85	0x3e1e1d13	0.15440778
86	0x3e9efc0a	0.31051666
87	0xbe63652d	-0.22206564
88	0x3f971067	1.1801881
89	0x3eb5950f	0.35465285
90	0xbe09f685	-0.13472946
91	0x3f334529	0.70027405
92	0x408c284b	4.3799186
93	0x400543ff	2.0822752
94	0xbff28a16	-1.894839
95	0xbe39b20e	-0.18134329
96	0x3d5a6d29	0.05332676
97	0xbe174ffe	-0.14776608
98	0xbd9b70ec	-0.075898975
99	0xbfb7f3b4	-1.4371247
100	0x3e3e3116	0.18573412
101	0x3eac006d	0.33594075
102	0x3dacea1e	0.08443092
103	0xbfa4e6de	-1.2882955
104	0xbd65c2a2	-0.05609382
105	0x3f3de19c	0.7417238
106	0xbe17346b	-0.1476609
107	0x3f3c240f	0.7349252
108	0x4021c641	2.5277255
109	0xbdcb02b3	-0.09912624
110	0xbe91be5a	-0.2846554
111	0xbf5dd2f8	-0.8665004
112	0x3e328246	0.17432508
113	0xbe8b3d59	-0.27195242
114	0x3fb822e4	1.4385648
115	0xbda1f02b	-0.079071365
116	0x3f6a149e	0.9143771
117	0xbc9ff796	-0.019527238
118	0xbf492f7f	-0.785881
119	0xbece3d5b	-0.40281186
120	0x3e505483	0.20344739
121	0x3e536d21	0.20647098
122	0xbd3acc95	-0.04560526
123	0x3ec8f54a	0.3924964
124	0x40195cfd	2.3963006
125	0x3f694b3b	0.9113042
126	0x3e8668d8	0.26251864
127	0x3d3185c6	0.043340467
128	0xbda2b426	-0.07944517
129	0xbf63e69c	-0.89023757
130	0x3e39ac21	0.18132068
131	0x3edc5c5d	0.43039218
132	0xbe1fc751	-0.15603377
133	0x3cea10d6	0.028572481
134	0x3d9affcf	0.07568323
135	0xbf0cb83e	-0.5496863
136	0xbf38430d	-0.7197731
137	0x3fbc37de	1.4704549
138	0x3b6c9562	0.0036099781
139	0x3effd9ee	0.49970955
140	0xbfe76ba4	-1.8079724
141	0xbfc896c6	-1.5671012
142	0xbe9711aa	-0.29505664
143	0x3fbf2e66	1.4936035
144	0x3e9211ad	0.2852911
145	0x3f0c6c84	0.5485308
146	0xc093bf7d	-4.617125
147	0x3f1ee5ac	0.620692
148	0xbebc5be8	-0.3678887
149	0xbf5867b8	-0.8453326
150	0x3e83ce32	0.25743252
151	0xbf3e2325	-0.74272376
152	0x3f19186d	0.59802896
153	0xbf9345d0	-1.150568
154	0x3e99a4b7	0.3000848
155	0xc00e7266	-2.2257323
156	0x401b6ebf	2.4286344
157	0x3f18217c	0.59426093
158	0x3f1492e6	0.5803665
159	0x41d84ebc	27.038445
160	0xbe862167	-0.2619736
161	0x3f69c19b	0.91311044
162	0xbe3844d8	-0.17995012
163	0xbed67bd3	-0.41891345
164	0x402ef9b1	2.73399
165	0xbe9f46b6	-0.31108636
166	0x3ef733fd	0.4828185
167	0x3f03e6a3	0.515238
168	0xbe0143cf	-0.12623523
169	0xbe0e219e	-0.13880011
170	0xbe2861a3	-0.16443495
171	0x3ecda566	0.40165251
172	0xc08374e7	-4.1080203
173	0x3f997a46	1.199044
174	0x3efa1fa0	0.48852253
175	0xbf0b513d	-0.54420835
176	0xc0a494b8	-5.143154
177	0xbfaf7a6b	-1.3709234
178	0xbe50ee25	-0.20403345
179	0x3ec28716	0.37993687
180	0xbe01737c	-0.1264171
181	0x3ea6fca2	0.3261462
182	0x3f207a5c	0.62686706
183	0x3f9ac321	1.2090799
184	0xbf31a6b0	-0.6939497
185	0xbf94fb27	-1.1639146
186	0xbe9f3059	-0.31091574
187	0x3eb62714	0.3557669
188	0xbdd3a2cf	-0.10333788
189	0xbf1d6161	-0.61476713
190	0xc1f2c180	-30.344482
191	0xc01d1849	-2.4546072
192	0x3e95e51d	0.29276362
193	0x3f7c5b7f	0.9857711
194	0x40856ab1	4.169274
195	0xbf48d378	-0.78447676
196	0xbf107174	-0.56423116
197	0x3d9e2702	0.07722284
198	0x3f032d17	0.51240677
199	0xbfde94e9	-1.7389194
200	0xbf44705b	-0.7673394
201	0xc005bab4	-2.0895205
202	0x3e577948	0.21042359
203	0xc03a7cc1	-2.9138644
204	0x3f6cecb9	0.9254871
205	0x3f54462e	0.82919586
206	0x3eed5012	0.4635015
207	0xc1ea73bc	-29.30651
208	0xbe6bb2bb	-0.23017399
209	0x3f839cd0	1.028223
210	0x3fe89533	1.8170532
211	0xbf133cc3	-0.5751459
212	0xbfb5b14d	-1.4194733
213	0xbf0d7349	-0.55254036
214	0x3f388b04	0.7208712
215	0xbe2c20b5	-0.16809352
216	0x3eefdf66	0.46850127
217	0x3e8d8cb9	0.27646425
218	0xbf1d88af	-0.6153669
219	0x3f83c008	1.0292978
220	0x3f64dfcb	0.8940398
221	0x40271163	2.6104362
222	0x3f6f482b	0.93469495
223	0xbf0087ed	-0.50207406
224	0x4096d41e	4.713393
225	0x40171f3f	2.361282
226	0xbe9273ac	-0.28603876
227	0x3dbe82d8	0.093023
228	0xbe389489	-0.18025412
229	0x3ecbe165	0.398204
230	0x3ecf0575	0.4043385
231	0xbebc3cbd	-0.3676509
232	0x3fd3b7b0	1.6540432
233	0xbe082797	-0.13296352
234	0xbe27ee2a	-0.16399446
235	0x3f51de4c	0.81979823
236	0xbe97c66c	-0.2964357
237	0x401c868c	2.445712
238	0x41df8238	27.938583
239	0x3f61558e	0.8802117
240	0x3d3de0f1	0.0463571
241	0x3ed02aa4	0.40657532
242	0xbdbb3e42	-0.09142734
243	0x3eaf190f	0.34198806
244	0xbe09f98f	-0.13474105
245	0x3f001154	0.5002644
246	0x3dccb027	0.09994536
247	0xbf9d637c	-1.2295985
248	0xbd900e77	-0.07034009
249	0xbfca87ac	-1.5822654
250	0xbe1b1d7c	-0.15147966
251	0xbfcc7dbb	-1.597587
252	0xc070730e	-3.7570224
253	0xbd1945f8	-0.037420243
254	0xbea3b215	-0.31971803
255	0xbeda2e2c	-0.4261335

model_1/block_1_project_BN/FusedBatchNormV3 f4 [8]
0	0x3f1349f8	0.5753474
1	0x3f1b3c77	0.6063914
2	0x3ee9d136	0.45667428
3	0x3fb9d2f3	1.4517502
4	0x3ee977e1	0.45599273
5	0x3f30d203	0.6907045
6	0x3ec74cd6	0.3892581
7	0xbf76fcf3	-0.9647972

model_1/block_2_depthwise_BN/FusedBatchNormV3;model_1/block_2_depthwise/depthwise;model_1/block_6_expand/Conv2D f4 [1, 3, 3, 48]
0	0xbf0e2aa0	-0.5553379
1	0x3f0c7f81	0.54882056
2	0xbe75358b	-0.23946206
3	0xbef54dca	-0.4791091
4	0xbdca29ee	-0.09871279
5	0xbe8f47cc	-0.27984464
6	0x3df3939b	0.11893388
7	0xbd88580b	-0.06657418
8	0xbc5f05c5	-0.013612215
9	0xbe2b7b5b	-0.16746275
10	0x3d8773ac	0.066138595
11	0x3f555fa6	0.8334907
12	0x3cfb6481	0.030687572
13	0xbf28b8b4	-0.65906835
14	0xbf911d59	-1.1337081
15	0x3ed95dda	0.42454416
16	0x3ed6ed98	0.41978145
17	0xbdb0b290	-0.08627808
18	0x3f80b020	1.0053749
19	0x3e84ac9d	0.25912943
20	0xbf057349	-0.52129036
21	0xbfa10708	-1.2580271
22	0x3f01a6ba	0.5064503
23	0xbf37dc95	-0.71820956
24	0xbe56ecf7	-0.20988832
25	0xbf08fbb1	-0.5350905
26	0xbde6f664	-0.11277464
27	0x3f924366	1.1426818
28	0xbe0fac51	-0.14030577
29	0x3e049746	0.12948331
30	0x3e308b38	0.17240608
31	0x40015920	2.0210648
32	0xbd85a7e6	-0.06526165
33	0xbdfab5ce	-0.12241708
34	0xbdc50479	-0.09619994
35	0x3dc44d6d	0.0958508
36	0xbd035c21	-0.032070283
37	0xbeb893a1	-0.36050132
38	0xbdc45799	-0.095870204
39	0x3e7adc86	0.24498186
40	0x3e63c780	0.22244072
41	0xbf99f25e	-1.202709
42	0xbea79b56	-0.327357
43	0x3e72cf23	0.23711829
44	0x3f746a3c	0.954746
45	0xbf341b14	-0.7035382
46	0xbe58160c	-0.2110216
47	0xbdcfb7d3	-0.101424836
48	0xbdb8a21a	-0.090152934
49	0xbfd1504f	-1.6352633
50	0x3e899132	0.26868588
51	0xbfa7b9db	-1.3103594
52	0xbc7241cf	-0.014786198
53	0xbeaf3053	-0.34216556
54	0xbea2f4ce	-0.31827396
55	0x3f958fc0	1.1684494
56	0x3e87fff2	0.26562458
57	0xbf310c99	-0.6915985
58	0x3ea2dd3d	0.31809416
59	0x3f4fb241	0.8113137
60	0x3e638558	0.22218835
61	0xbf56784a	-0.83777297
62	0xbf8817af	-1.0632228
63	0x3e0ada2e	0.13559791
64	0xbde8f773	-0.11375322
65	0x3ef8e75a	0.48614007
66	0xbecf2116	-0.4045493
67	0xbf0c0934	-0.5470154
68	0xbebfceca	-0.37462455
69	0xbd3f4ca2	-0.046703942
70	0x3ea74c0d	0.3267521
71	0x3f634535	0.88777477
72	0x3daf8f74	0.085722834
73	0xbc19cf3b	-0.0093877865
74	0x3dab38c7	0.08360439
75	0x3fc6dacc	1.5535522
76	0x3ec039c5	0.37544075
77	0xbca3418b	-0.019928714
78	0x3d884456	0.06653659
79	0xbfca9b4c	-1.5828643
80	0xbea0c0de	-0.31397146
81	0x3e953712	0.29143578
82	0xbd36ca27	-0.04462638
83	0xbf2a89ee	-0.66616714
84	0x3f6078de	0.8768443
85	0xbfa139ae	-1.2595727
86	0x3fb54fb7	1.4164952
87	0xbdd39c74	-0.103325754
88	0xbca65b50	-0.020307213
89	0xbfc7900e	-1.5590837
90	0xbed552dc	-0.4166478
91	0x3e1b0a07	0.15140544
92	0x3fa8fc03	1.3201908
93	0x3f0782e4	0.529341
94	0x3e8cde5e	0.27513403
95	0xbef806ea	-0.48442775
96	0xbe6af906	-0.22946557
97	0xbd4c8a3f	-0.04993653
98	0x3e360414	0.17774993
99	0xbe7b7c75	-0.24559195
100	0xbcfce698	-0.030871674
101	0x3f1f0025	0.62109596
102	0x3e010195	0.1259826
103	0x3f201058	0.6252494
104	0x3c5b0523	0.013367924
105	0x3e155ef5	0.14587004
106	0xb9611571	-0.0002146566
107	0x3f199672	0.59995186
108	0x3e94c1b5	0.29054037
109	0x3e5d14e4	0.2159
110	0xbf5efd77	-0.87105507
111	0x3ee29c4d	0.44259873
112	0x3e4edb84	0.20200926
113	0x3ede52e5	0.43422619
114	0xbeb05c49	-0.34445408
115	0x3dec5278	0.11539167
116	0xbf1c2671	-0.60996157
117	0x3f601f7d	0.8754805
118	0x3e88873b	0.26665673
119	0x3e22826f	0.15870069
120	0xbe30f159	-0.17279567
121	0x3f43cd62	0.76485264
122	0xbbd573d8	-0.006514054
123	0xbf24c809	-0.6436773
124	0xbe84a204	-0.25904858
125	0x3c412409	0.011788377
126	0x3dd7bbcd	0.10533867
127	0xbf126d8c	-0.57198405
128	0xbe26be15	-0.16283448
129	0x3e0bca5f	0.13651417
130	0x3c3f7abc	0.011686977
131	0x3edc86e0	0.4307165
132	0xbe229fd2	-0.15881279
133	0x3fa26b82	1.2689059
134	0xbeb28b4a	-0.34871894
135	0x3e32aad7	0.17447983
136	0x3e4b32d0	0.19843602
137	0xbf497bbb	-0.7870442
138	0x3e0419e5	0.12900503
139	0xbe1fc469	-0.15602268
140	0x3f454263	0.77054423
141	0x3ea76430	0.32693624
142	0xbe7a034a	-0.24415317
143	0xbe44a05b	-0.19201796
144	0xbe9f03ff	-0.31057736
145	0xbe9543cc	-0.29153287
146	0xbf4501c8	-0.7695584
147	0xbdbcfa1b	-0.09227391
148	0xbece92b2	-0.40346295
149	0x3ebdb2aa	0.37050372
150	0x3bbab270	0.005697541
151	0x3d8b9020	0.06814599
152	0x3dadd550	0.08487952
153	0xbf20ff33	-0.62889403
154	0xbdcb96d9	-0.09940881
155	0xc0049895	-2.0718129
156	0xbe59bd3a	-0.2126359
157	0xbeddccd0	-0.43320322
158	0xbfa2404d	-1.2675873
159	0x3fef93a1	1.8716928
160	0x3ece1f5e	0.40258306
161	0x3e18fbad	0.14939757
162	0x3fedc9b0	1.8577175
163	0x3f0c6c19	0.54852444
164	0x3c46b3a8	0.012127794
165	0x4017e217	2.3731744
166	0x3f1f03db	0.6211526
167	0x3f467259	0.7751823
168	0x3d88fe71	0.06689156
169	0xbf25661a	-0.6460892
170	0xbef102ee	-0.47072548
171	0xbdc781e4	-0.097415715
172	0x3f22ebf6	0.636413
173	0xbe9962cb	-0.29958186
174	0x3e30576c	0.17220849
175	0xbfd4cbbd	-1.6624676
176	0x3bbad9f1	0.00570225
177	0xbeaa654b	-0.33280405
178	0xbed59c96	-0.41721028
179	0xbd46e10b	-0.04855446
180	0x3d0b9815	0.034080584
181	0xbf6b2335	-0.91850597
182	0x3f92b476	1.1461322
183	0x3e772e33	0.24138717
184	0x3e35cbc0	0.17753506
185	0x3fd198db	1.6374773
186	0xbe5a14f7	-0.2129706
187	0xbd9aea5f	-0.07564234
188	0xbf3dcdfc	-0.7414243
189	0x3f6bfcdc	0.9218271
190	0x3ebcda06	0.3688509
191	0xbef4e794	-0.4783293
192	0xbf89deec	-1.0771155
193	0x3f0f4b3c	0.55974174
194	0x3f599fea	0.85009634
195	0x3fae9645	1.3639609
196	0x3fecec10	1.850954
197	0xc0066503	-2.0999153
198	0xbf2708c6	-0.6524776
199	0xbc94ded6	-0.018172663
200	0xbd59a57f	-0.053136345
201	0xbf97f705	-1.1872259
202	0xc0025df1	-2.0369837
203	0xc02045e8	-2.5042667
204	0x3fb00e4e	1.3754365
205	0xbe6e303a	-0.23260584
206	0xbda45647	-0.080242686
207	0x3f0c925f	0.54910845
208	0x3d891741	0.066938885
209	0xc09887e3	-4.7665877
210	0xbfccc9d8	-1.5999098
211	0xbf6662dd	-0.89994603
212	0x3f318af6	0.6935266
213	0xbe8ce7d3	-0.27520618
214	0xbed214a2	-0.41031367
215	0xbf3d8309	-0.7402807
216	0x3fd734d1	1.6812993
217	0xbeb4df08	-0.3532641
218	0x3fb1e7ea	1.38989
219	0xbf530d21	-0.8244191
220	0x3fe0dde6	1.7567718
221	0x3f90aabd	1.1302105
222	0xbe611cb3	-0.21983604
223	0x3f9013c0	1.1256027
224	0xbec6a54c	-0.38797987
225	0xbfc25fd7	-1.5185498
226	0x3f8a95f5	1.0827013
227	0xc0724e1d	-3.7860177
228	0x3f1bcc91	0.6085902
229	0xbf5fc958	-0.874166
230	0xc0454361	-3.0822375
231	0xbfbe62da	-1.4873917
232	0x3d45f4f3	0.048329305
233	0x3fac4f52	1.3461707
234	0xbf4a3cfb	-0.789993
235	0x3db83de4	0.0899618
236	0xbfc164e2	-1.5108912
237	0xbee1925f	-0.44056985
238	0x3f552837	0.8326449
239	0x3fd5ab40	1.6692886
240	0xbe51cfd7	-0.20489441
241	0x3d1062a7	0.035250332
242	0x3d9ec923	0.077532075
243	0x3e6cb353	0.23115282
244	0x3f180653	0.5938465
245	0x400d8f87	2.2118852
246	0xbdc401d0	-0.09570658
247	0x3f032164	0.51222825
248	0x3e73fc58	0.2382673
249	0x3db9bee7	0.09069615
250	0x3f44152b	0.765948
251	0xbf7e4093	-0.9931728
252	0xbd987bbf	-0.07445478
253	0xbe1bb277	-0.15204798
254	0xbf1f1a60	-0.6214962
255	0xbe223341	-0.15839864

model_1/block_2_project_BN/FusedBatchNormV3 f4 [8]
0	0x3fb1e966	1.3899353
1	0xc04ca841	-3.1977694
2	0x3ea5a7e0	0.3235464
3	0x3f8866c5	1.0656363
4	0x3f748e8b	0.95530003
5	0xbef68c0e	-0.48153728
6	0x3f1faa80	0.6236954
7	0x3f1e2c86	0.6178669

model_1/block_3_depthwise_BN/FusedBatchNormV3;model_1/block_3_depthwise/depthwise;model_1/block_6_expand/Conv2D f4 [1, 3, 3, 48]
0	0xbe23df80	-0.16003227
1	0xbe9391b7	-0.2882211
2	0xbe8b8c3d	-0.2725543
3	0xbe1954b3	-0.14973716
4	0xbe4c6e12	-0.19963863
5	0x3e50d776	0.20394692
6	0xbe7c4c74	-0.2463854
7	0xbee41a0f	-0.4455113
8	0xbe00437c	-0.12525743
9	0x3e65adf0	0.22429633
10	0x3e21cfd3	0.15801935
11	0xbea7ca40	-0.32771492
12	0xbe52eaf2	-0.20597437
13	0x3db10d3b	0.08645102
14	0xbebed37b	-0.37270722
15	0x3e2e9d6d	0.1705224
16	0x3e1cb900	0.15304947
17	0xbe60b08c	-0.21942347
18	0xbe1880d1	-0.1489289
19	0x3f2990ff	0.6623687
20	0x3df93124	0.12167576
21	0x3f01cb89	0.50701195
22	0xbe7cda90	-0.2469275
23	0x3eb51163	0.35364828
24	0xbe360e1a	-0.17778817
25	0xbe5609a6	-0.20902118
26	0x3e8143a8	0.2524693
27	0x3e9240ae	0.28564972
28	0x3e22d33b	0.1590089
29	0xbe8a1846	-0.26971644
30	0x3f2a7b83	0.66594714
31	0x3efd664a	0.49492103
32	0x3e17b9c7	0.14816962
33	0xbe8254ec	-0.25455415
34	0xbe87ccab	-0.26523337
35	0xbeb745f3	-0.35795555
36	0xbede06be	-0.4336452
37	0xbedc879b	-0.4307221
38	0x3fd01b58	1.6258345
39	0x3e8bde48	0.27318025
40	0xbe8751cd	-0.26429597
41	0xbc9d33a6	-0.019189667
42	0x3d9a74e7	0.075418286
43	0x3e461716	0.19344744
44	0x3f601e73	0.8754646
45	0x3f228a6b	0.6349246
46	0xbdf6d0d3	-0.12051549
47	0xbe7a170a	-0.24422851
48	0xbe58675e	-0.21133181
49	0xbebacdcf	-0.36485144
50	0xbeae8b0f	-0.34090468
51	0xbe8d4cdb	-0.275977
52	0xbf577625	-0.8416465
53	0x3e2a0573	0.16603641
54	0xbf0a80ac	-0.5410259
55	0xbf258444	-0.64654946
56	0xbe04c4cc	-0.12965697
57	0x3ebd4c0a	0.36972076
58	0x3e933a03	0.28755197
59	0xbeb28637	-0.34868023
60	0xbed11fd1	-0.40844586
61	0x3e50a245	0.20374401
62	0xbee5f670	-0.4491458
63	0x3eb7752f	0.3583159
64	0x3e307cd9	0.17235126
65	0xbe90e7c6	-0.2830183
66	0xbe672bd3	-0.22575311
67	0xbda1545e	-0.0787742
68	0x3e499392	0.196852
69	0x3f4456f0	0.76695156
70	0x3f250337	0.6445803
71	0x3f0bc616	0.5459913
72	0xbe04ac39	-0.12956323
73	0xbe83d01c	-0.25744712
74	0x3eb239b1	0.3480964
75	0x3ed68210	0.41896105
76	0x3e5ca794	0.21548301
77	0xbea2df69	-0.31811073
78	0x3f478ce1	0.7794934
79	0x3f152152	0.5825397
80	0x3e9e88a9	0.30963638
81	0xbe9acf64	-0.3023635
82	0xbe9d5ad5	-0.30733362
83	0xbefeff97	-0.49804375
84	0xbe90a11d	-0.2824792
85	0xbf0afbdb	-0.5429055
86	0x3fc88155	1.5664469
87	0x3ed8eef0	0.42369795
88	0xbefb701d	-0.49108973
89	0xbdc48bf1	-0.09597004
90	0x3e6100cd	0.21972962
91	0x3e80ded3	0.2517
92	0x3e9343e0	0.28762722
93	0x3f1f016a	0.6211153
94	0xbe87d2f0	-0.2652812
95	0xbeb2b137	-0.3490083
96	0xbdba5815	-0.090988316
97	0xbe26e6df	-0.16299008
98	0xbde67c26	-0.11254148
99	0xbdc5d603	-0.0965996
100	0xbf03234f	-0.5122575
101	0x3e33a0f6	0.1754187
102	0xbeb28931	-0.34870294
103	0xbea0134b	-0.3126472
104	0xbda786f2	-0.08180036
105	0x3e46ddeb	0.19420592
106	0x3e07a203	0.13245396
107	0xbdfeab9f	-0.12435078
108	0xbe23ec86	-0.16008195
109	0x3e3bec47	0.18351851
110	0xbe8852a0	-0.26625538
111	0x3e04ee1e	0.1298146
112	0x3d4fdbf8	0.050746888
113	0xbe06944f	-0.13142513
114	0xbdad50b1	-0.08462656
115	0xbe7bbd97	-0.24584042
116	0x3e028fe7	0.12750207
117	0xbf9062f7	-1.1280202
118	0xbe954114	-0.29151213
119	0x3e0d7ce1	0.13817169
120	0xbd7ffa47	-0.062494542
121	0xbe1946ed	-0.14968462
122	0x3e3eb990	0.18625474
123	0x3de25e2d	0.11053119
124	0x3dd2f8aa	0.10301335
125	0xbd775993	-0.06038816
126	0x3f0fd883	0.56189746
127	0x3e7f67b5	0.24941905
128	0x3de5a791	0.112136014
129	0xbddff04a	-0.109345034
130	0xbdf91b9f	-0.121634714
131	0xbe1f6209	-0.15564741
132	0xbe81216d	-0.25220814
133	0xbe8c34db	-0.27384076
134	0x3e676684	0.225977
135	0x3deb85c0	0.1150012
136	0xbe079528	-0.13240492
137	0xbcfc1d7f	-0.030775784
138	0x3df180a6	0.11792116
139	0x3e155576	0.14583382
140	0xbe342de5	-0.17595632
141	0x3e98bf81	0.29833606
142	0xbda9456d	-0.08265195
143	0xbdfdfb02	-0.124013916
144	0xbe5aa51d	-0.21352048
145	0xbec91dcb	-0.39280543
146	0xbec6220d	-0.38697854
147	0xbe20bbc7	-0.15696631
148	0xbed13633	-0.40861663
149	0xbdcc8d89	-0.09987933
150	0xbef87365	-0.4852554
151	0xbf120365	-0.5703643
152	0xbe5f8e61	-0.21831657
153	0x3ebe0b32	0.37117916
154	0x3e706c6e	0.23478863
155	0xbea40b48	-0.32039857
156	0xbecccd6c	-0.40000474
157	0x3da94062	0.08264233
158	0xbf00fa0f	-0.5038156
159	0x3e61d53d	0.22054
160	0x3e2d5132	0.16925505
161	0xbe88b105	-0.26697555
162	0xbe37daf6	-0.1795462
163	0x3f38f58b	0.7224967
164	0x3e76ad7d	0.24089618
165	0x3f2afb2a	0.66789496
166	0xbea88641	-0.32914928
167	0x3ec5d617	0.386399
168	0xbe712885	-0.23550613
169	0xbe9b515b	-0.30335507
170	0x3e9fabd4	0.31185782
171	0x3eedf7c3	0.4647809
172	0x3e5190f8	0.20465457
173	0xbed2e941	-0.41193584
174	0x3f2efdfd	0.68356305
175	0x3f081cf7	0.53169197
176	0x3e6bee24	0.23040062
177	0xbecf81bc	-0.40528667
178	0xbed7dbf8	-0.4216001
179	0xbf16b1c2	-0.58864987
180	0xbee545ed	-0.44779912
181	0xbf141c89	-0.5785604
182	0x3faac591	1.3341542
183	0x3ed09967	0.40742037
184	0xbf206b5e	-0.6266383
185	0xbe0fc220	-0.14038897
186	0x3e719c22	0.23594716
187	0x3e427f1d	0.18993802
188	0x3fc0ea36	1.5071476
189	0x3f5b2179	0.8559795
190	0xbe5ed522	-0.21760991
191	0xbebf8542	-0.37406355
192	0xbea2318b	-0.31678423
193	0xbedbbffa	-0.42919904
194	0xbf027f5c	-0.50975585
195	0xbea2c98e	-0.317944
196	0xbf223e1e	-0.63376033
197	0xbf05dfff	-0.52294916
198	0xbf488f6b	-0.7834384
199	0xbf5c12ac	-0.8596599
200	0xbe84ed37	-0.2596223
201	0x3ef332f5	0.47499815
202	0x3ee0f59e	0.4393739
203	0xbebaa19f	-0.36451432
204	0xbf52a2cb	-0.8227965
205	0x3e8c4240	0.27394295
206	0xbe8037df	-0.25042626
207	0x3ede7b71	0.43453553
208	0x3e4542a3	0.19263701
209	0xbeb64534	-0.35599673
210	0xbe7cb953	-0.2468007
211	0xbe8a542a	-0.27017337
212	0x3e9f4a72	0.31111485
213	0x3f58249e	0.84430873
214	0x3f574a1a	0.84097445
215	0x3f0f119f	0.5588626
216	0xbe54b351	-0.20771529
217	0xbec45400	-0.38345337
218	0x3ef1e2d0	0.47243357
219	0x3f17ba1f	0.59268373
220	0x3ea6500e	0.32482952
221	0xbef46646	-0.47734278
222	0x3f735c90	0.95063114
223	0x3f549dc6	0.83053243
224	0x3ee80dbe	0.45322984
225	0xbf02bc71	-0.5106879
226	0xbeff1aae	-0.49825042
227	0xbf5b80cb	-0.857434
228	0xbeb08e7a	-0.344837
229	0xbf5ec7d4	-0.87023664
230	0x3fb648a0	1.4240913
231	0x3f08b75a	0.5340477
232	0xbf4c4465	-0.7979186
233	0xbe6f1c88	-0.23350728
234	0x3f0a32b2	0.53983605
235	0x3ea2fe4d	0.3183464
236	0x3f9461c5	1.1592337
237	0x3f3be26a	0.73392355
238	0xbee16c92	-0.44028145
239	0xbeee60b6	-0.4655816
240	0xbe13a5ff	-0.14418791
241	0xbdfb76b9	-0.12278504
242	0xbeaad386	-0.33364505
243	0xbe2ff23d	-0.1718225
244	0xbf29bd43	-0.66304415
245	0xbf05be7b	-0.52243775
246	0xbf13d380	-0.577446
247	0xbf07a8a9	-0.5299173
248	0xbe2da1ce	-0.16956255
249	0x3ea05b0f	0.31319472
250	0x3e476ff9	0.19476308
251	0xbe1affd6	-0.15136656
252	0xbeb0a0eb	-0.3449777
253	0x3e5d178e	0.21591017
254	0xbe6e2ada	-0.23258534
255	0x3e402ce6	0.18767127

model_1/block_3_project_BN/FusedBatchNormV3 f4 [8]
0	0x3faef252	1.36677
1	0xbe55c1ae	-0.20874664
2	0xbf38b692	-0.7215358
3	0x3e7918a2	0.24325803
4	0x3f0df68f	0.55454344
5	0xbfe20893	-1.7658867
6	0xbefc6f78	-0.49303794
7	0xbfb19868	-1.3874636

model_1/block_4_depthwise_BN/FusedBatchNormV3;model_1/block_4_depthwise/depthwise;model_1/block_6_expand/Conv2D f4 [1, 3, 3, 48]
0	0xbf7fec4c	-0.99969935
1	0xbeb11b86	-0.3459131
2	0x3e578141	0.210454
3	0xbdf6c898	-0.12049979
4	0xbe8089f4	-0.2510525
5	0x3d41e905	0.047341365
6	0xbf6aecff	-0.9176788
7	0xbdd4e60d	-0.10395441
8	0x3c82bb41	0.01595843
9	0x3f77ec08	0.9684453
10	0x3eb06a90	0.344563
11	0x3daf4fe5	0.085601605
12	0xbe2caeb0	-0.16863513
13	0x3ef33b7d	0.47506323
14	0x3c2fc5e0	0.010728329
15	0x3e51b16b	0.20477836
16	0x3e10a014	0.14123565
17	0x3e153efb	0.14574806
18	0x3ef52dc3	0.47886476
19	0x3db1d59d	0.086833216
20	0xbf15bfee	-0.58495986
21	0xbe4d0586	-0.20021638
22	0xbd3e9b74	-0.04653497
23	0x3ea20c5e	0.3165006
24	0xbe382b8a	-0.17985359
25	0xbd3b8b80	-0.045787334
26	0xbe1a7a26	-0.15085658
27	0xbf51d679	-0.81967884
28	0x3e9bcc59	0.30429342
29	0xbfa6855e	-1.300945
30	0x3f329714	0.69761777
31	0x3ea14673	0.3149906
32	0xbe430c1f	-0.19047593
33	0x3f6a6f90	0.9157648
34	0x3eb33484	0.35001004
35	0xbe680e33	-0.22661667
36	0x3dc0c2cc	0.094121546
37	0xbfa5e421	-1.2960244
38	0xbe1eb42e	-0.1549842
39	0x3f97cc4f	1.1859225
40	0xbf01daab	-0.50724286
41	0x3e9d2200	0.30690002
42	0xbe04b2d9	-0.1295885
43	0x3d1f8f0a	0.038954772
44	0xbdaa01f6	-0.08301155
45	0x3db43d7a	0.08800788
46	0x3e03371d	0.12813993
47	0xbd89b795	-0.067244686
48	0x3e08c66c	0.13356942
49	0xbf632729	-0.8873163
50	0xbaa77e62	-0.0012778754
51	0x3d947472	0.07248773
52	0xbe360885	-0.17776687
53	0x3e38758a	0.18013588
54	0xbf74b541	-0.9558907
55	0xbe734b55	-0.23759206
56	0x3f05796e	0.5213841
57	0x3e78a144	0.24280268
58	0x3f5fae7e	0.8737563
59	0x3f491d69	0.785605
60	0xbe8bddfe	-0.27317804
61	0xbedaed32	-0.4275909
62	0xbfb338ca	-1.4001706
63	0xbe644d9b	-0.22295229
64	0xbc60ba28	-0.013716258
65	0xbed8dc2e	-0.42355484
66	0x3ffb96c9	1.9655391
67	0x3f53830f	0.82621855
68	0x3dc98d2c	0.098413795
69	0x3ef1b0ea	0.47205287
70	0xbec71e94	-0.38890517
71	0x3de5126a	0.11185153
72	0xbf122af0	-0.5709677
73	0xbdb100bc	-0.08642718
74	0x3df57b81	0.11986447
75	0xbfd2b4ab	-1.6461385
76	0x3e1739ec	0.14768189
77	0xbf3513c9	-0.70733315
78	0xbe6fb926	-0.23410472
79	0xbf928e35	-1.1449648
80	0xbe20b320	-0.15693331
81	0x3f0d8b55	0.5529073
82	0xbe843c7d	-0.258274
83	0xbf6d0171	-0.92580324
84	0xbe581104	-0.21100241
85	0xbde080c2	-0.109620586
86	0x3d0cad52	0.03434498
87	0x3f3defbe	0.7419394
88	0x3f5d345a	0.8640801
89	0xbe03a9ec	-0.12857789
90	0xbe3ce567	-0.18446885
91	0x40034a34	2.051404
92	0x3e16dc27	0.14732419
93	0xbfd451eb	-1.6587499
94	0x3d57d9ee	0.05269807
95	0xbe8a18c1	-0.2697201
96	0xbf929830	-1.1452694
97	0xbe0b86de	-0.13625666
98	0x3e3e0b5b	0.1855902
99	0xbd2f847a	-0.04285095
100	0xbe924cd9	-0.28574255
101	0x3e3b6f26	0.18304119
102	0xbee064df	-0.4382696
103	0xbe079a39	-0.13242425
104	0x3b9e9164	0.0048391093
105	0x3f50046f	0.81256765
106	0xbdb883cd	-0.09009514
107	0xbe27b9da	-0.1637949
108	0xbe2e7796	-0.17037806
109	0x3efb0f92	0.49035317
110	0x3e73e206	0.2381669
111	0x3eb2a5fa	0.34892255
112	0xbea90d39	-0.330179
113	0xbdb4aa16	-0.08821504
114	0x3ec0f026	0.3768322
115	0xbde1417a	-0.10998817
116	0xbf1a73fa	-0.60333216
117	0xbe93eefb	-0.28893265
118	0x3dd8aca5	0.10579804
119	0x3e1d93b6	0.15388379
120	0x3e1928dc	0.14956993
121	0xbe1733c1	-0.14765836
122	0x3e60973b	0.2193269
123	0xbf09339d	-0.5359438
124	0xbebb13c1	-0.3653851
125	0xbfabd841	-1.342537
126	0x3ed81e5b	0.4221066
127	0xbdd67b53	-0.10472741
128	0xbd964616	-0.073375866
129	0x3f067370	0.52519894
130	0xbe9a370c	-0.30120122
131	0xbe6097a1	-0.21932842
132	0x3dad90e8	0.08474904
133	0xbf4b55e6	-0.79427946
134	0x3dcd63ea	0.10028823
135	0x3f68f97e	0.91005695
136	0xbf07a98d	-0.5299309
137	0x3e5c28a4	0.21499878
138	0xbe25a3ad	-0.16175719
139	0x3d974af6	0.073873445
140	0x3e030a98	0.1279701
141	0x3e2e6413	0.17030363
142	0x3d8db342	0.06918956
143	0x3ef4543f	0.47720525
144	0x3f0cf5ca	0.55062544
145	0xbeb67882	-0.35638815
146	0x3e011511	0.12605692
147	0xbbbe4d90	-0.005807586
148	0xbe1a5e29	-0.15074982
149	0x3db4de35	0.08831445
150	0x3f03fcc3	0.5155756
151	0xbeb26e96	-0.34849995
152	0xbf302de4	-0.68820024
153	0x3f062513	0.5240032
154	0x3e89e324	0.26931107
155	0x3ec5e917	0.38654396
156	0xbe627bf2	-0.22117594
157	0xbe2cf5e0	-0.16890669
158	0xbf7c208f	-0.9848718
159	0x3f2660a5	0.6499122
160	0xbe2cbdc5	-0.16869266
161	0x3c58ac83	0.013224724
162	0x3f1323cf	0.57476515
163	0x3f4be71f	0.7964954
164	0xbb39f746	-0.0028376146
165	0x3ec0b459	0.37637594
166	0xbf1c5295	-0.6106351
167	0xbdfc8e40	-0.123318195
168	0xbe642b9a	-0.22282258
169	0xbefe2ca8	-0.49643445
170	0xbeccbc8b	-0.39987597
171	0xbf55f5ae	-0.83578
172	0x3fb0415a	1.3769944
173	0x3e8fbee0	0.28075314
174	0x3e9af26b	0.30263075
175	0x3f947282	1.1597445
176	0xbfbd9b53	-1.4813026
177	0x3dd42f1a	0.103605464
178	0x3f266ff8	0.650146
179	0x3c23af7d	0.00999057
180	0xbdca1cc1	-0.098687656
181	0x3ef738e0	0.4828558
182	0xbf3ddca5	-0.741648
183	0xbf7e55b8	-0.99349546
184	0x3eb5b2dd	0.35488024
185	0xbe35e260	-0.17762136
186	0x3dd71d48	0.10503632
187	0x3e97288e	0.29523128
188	0xbfd78885	-1.6838537
189	0x3f0de444	0.5542643
190	0x3dd9d263	0.10635831
191	0xbede78c0	-0.434515
192	0x3f83c95b	1.0295824
193	0xbe3af86e	-0.18258831
194	0xbeda4f02	-0.42638403
195	0xbf3145f9	-0.69247395
196	0x3dfcee39	0.12350125
197	0x3fed773b	1.8552011
198	0x3b368b6c	0.0027854098
199	0x400d9ef7	2.2128274
200	0xbfc2b921	-1.5212747
201	0xbf3b3f5b	-0.7314355
202	0xbe211976	-0.15732369
203	0x3faaeaa3	1.3352855
204	0xbe71befd	-0.23608012
205	0xbf33aaee	-0.70182693
206	0xbfbe6856	-1.4875591
207	0xbf200377	-0.62505287
208	0xbd8e39e6	-0.06944637
209	0xbf6d3cb2	-0.9267074
210	0xbfaa3a7e	-1.32991
211	0x3ee763cf	0.45193335
212	0x3f211b5d	0.6293238
213	0x3f8e386b	1.1110967
214	0xbedc1f88	-0.42992806
215	0x3eeada8c	0.45869863
216	0xbf8a3268	-1.0796633
217	0x3e9e3f20	0.30907536
218	0xbfdcd955	-1.7253824
219	0x3f9a6a5f	1.2063712
220	0xbf268e26	-0.6506065
221	0xbef95843	-0.4870015
222	0xbf86b925	-1.0525252
223	0xbf721725	-0.94566566
224	0x3e5f63fa	0.21815482
225	0x408c75cd	4.38938
226	0xbf526c8c	-0.8219688
227	0x3f69a7ba	0.91271555
228	0xbf8b44c3	-1.088036
229	0xbee4a33a	-0.44655782
230	0x3f52e912	0.8238689
231	0xbeed4073	-0.46338233
232	0xbec70e5b	-0.3887814
233	0x3f950061	1.1640741
234	0xbfada3f0	-1.3565655
235	0xbf8c1d19	-1.094638
236	0x3faab74f	1.3337191
237	0x3f89426f	1.0723399
238	0xbfccf027	-1.6010789
239	0xbf31fc88	-0.6952596
240	0x3f0e7161	0.5564175
241	0xbd411ff6	-0.04714962
242	0x3ea5d546	0.32389277
243	0xbd304188	-0.043031245
244	0xbe2357ff	-0.15951537
245	0xbe878ac7	-0.26473066
246	0x3e2ee490	0.17079377
247	0xbf007614	-0.5018017
248	0xbee27147	-0.4422705
249	0x3e44fb5c	0.19236511
250	0xbcb30161	-0.021851243
251	0xbe96ff47	-0.29491636
252	0xbde8db42	-0.11369945
253	0xbf018195	-0.5058835
254	0xbf2c6226	-0.6733726
255	0x3f1825cc	0.59432673

model_1/block_4_project_BN/FusedBatchNormV3 f4 [8]
0	0x3fb34d8f	1.4008044
1	0x3ec2bde0	0.38035488
2	0x3f9910c9	1.1958247
3	0xbf4c3778	-0.7977214
4	0xbfb10ac5	-1.3831412
5	0x3f98cce1	1.1937524
6	0x3e39a62f	0.181298
7	0x3fad4eec	1.353971

model_1/block_5_depthwise_BN/FusedBatchNormV3;model_1/block_5_depthwise/depthwise;model_1/block_6_expand/Conv2D f4 [1, 3, 3, 48]
0	0x3e8a138c	0.26968038
1	0x3f6e1292	0.92997086
2	0x3f183985	0.5946277
3	0x3f07117b	0.5276105
4	0x3cff20b7	0.03114353
5	0xbfa44323	-1.2832989
6	0x3ee298b0	0.44257116
7	0x3f2abd0c	0.6669471
8	0xbf0e8729	-0.5567499
9	0xbd8ee238	-0.069767416
10	0xbe929c45	-0.2863485
11	0x3f00bf71	0.50292116
12	0x3ed8e7a7	0.42364237
13	0x3e25d59b	0.16194765
14	0xbbfae45a	-0.007656616
15	0x3dafb328	0.08579093
16	0x3f6c48d0	0.92298603
17	0xbf21a463	-0.6314146
18	0x3ec5619c	0.38551033
19	0x3f73fb0f	0.9530496
20	0x3eee88d2	0.4658876
21	0xbdf2e03e	-0.11859177
22	0x3cd2d07e	0.025734182
23	0x3c0a98b2	0.008459257
24	0xbe3522ec	-0.17689103
25	0xbf513012	-0.81713974
26	0x3e20b3b7	0.15693556
27	0x3e09f508	0.13472378
28	0xbd6ebd1a	-0.05828581
29	0xbe618ad8	-0.22025621
30	0x3e861dad	0.26194516
31	0x3ef3b6dd	0.4760045
32	0x3f1551f3	0.5832817
33	0xbf322125	-0.69581825
34	0xbd9e5c4c	-0.07732448
35	0x3e84e3a1	0.25954917
36	0xbe03e834	-0.12881547
37	0x3e1569ae	0.14591095
38	0xbe532640	-0.2062006
39	0xbf5252e1	-0.82157713
40	0x38d44c78	0.00010123191
41	0xbf844cd4	-1.0335946
42	0xbeb275ea	-0.34855586
43	0xbdc5b985	-0.09654526
44	0x3e22341c	0.1584019
45	0xbeee04ed	-0.46488133
46	0x3eddc849	0.43316868
47	0xbf54aa64	-0.83072495
48	0x3ef014ae	0.46890777
49	0x3da0a53b	0.07844015
50	0x3f47bb38	0.7802005
51	0xbf96b9b6	-1.1775424
52	0x3f00ca32	0.50308526
53	0x3f88fc21	1.0701944
54	0x3ef9b9e9	0.4877465
55	0xbf73298b	-0.94985265
56	0xbf52de3a	-0.8237034
57	0xbeb6a5a2	-0.35673243
58	0x3daf0383	0.08545592
59	0x3f859c31	1.0438291
60	0x3d8b8313	0.0681211
61	0xbf18f36c	-0.5974643
62	0xbf822c60	-1.0169792
63	0x3ec33521	0.38126472
64	0xbe1cad6d	-0.15300532
65	0x3faab5f1	1.3336774
66	0x3e9418fb	0.2892531
67	0x3f4cfbc6	0.80071676
68	0x3e398f55	0.18121083
69	0x3ea49479	0.32144526
70	0x3ea23966	0.31684417
71	0x3ea3bad6	0.31978482
72	0x3f06a4e2	0.5259534
73	0xbf39b965	-0.72548515
74	0xbe1249e5	-0.14286001
75	0xbf9bd2fe	-1.2173765
76	0xbf5f99c4	-0.87344
77	0xbe3ce983	-0.18448453
78	0xbf55d587	-0.8352894
79	0x3f84d4ea	1.0377476
80	0x3e224b65	0.15849073
81	0xbf5892c0	-0.8459892
82	0xbfde9305	-1.7388617
83	0x3f65751f	0.8963184
84	0x3e28884c	0.16458243
85	0xbf0ba823	-0.5455343
86	0xbfa6fc7c	-1.3045802
87	0xbf217a23	-0.6307699
88	0x3db8c5f8	0.090221345
89	0x3f9d5466	1.2291381
90	0xbf0bbe40	-0.54587173
91	0x3ea0a49b	0.31375584
92	0xbefdeeb3	-0.49596176
93	0xbe92baa3	-0.28658018
94	0x3f02fc16	0.511659
95	0xbb0fb7ba	-0.0021929578
96	0x3e689f2d	0.2271697
97	0xbc4b1a06	-0.012396341
98	0x3e9d6887	0.3074381
99	0xbf61fc14	-0.88275266
100	0xbdf3fd22	-0.119135156
101	0xbf7b217a	-0.98097956
102	0x3edbddc1	0.42942622
103	0x3ef92482	0.48660666
104	0xbec16d28	-0.37778592
105	0xbc96616d	-0.018357003
106	0xbd530473	-0.051517915
107	0x3ece398c	0.4027828
108	0x3e85987c	0.260929
109	0x3e9f7cde	0.31149954
110	0x3eb05ad0	0.34444284
111	0xbd7df3c9	-0.06200007
112	0xbf64b6a0	-0.89341164
113	0x3dd0742a	0.101784065
114	0x3e9b7a98	0.3036697
115	0x3f5bbb20	0.85832405
116	0xbd866403	-0.065620445
117	0xbe7cc250	-0.246835
118	0xbea0a65a	-0.31376916
119	0xbe132f53	-0.14373522
120	0xbe2b3d89	-0.16722693
121	0xbf5bd7d7	-0.8587622
122	0xbe8e1f56	-0.27758282
123	0xbea1bcad	-0.3158926
124	0xbea2d51c	-0.31803215
125	0xbe96b3bf	-0.2943401
126	0x3cd189e9	0.025578456
127	0x3e8c077b	0.27349457
128	0x3efc9aca	0.49336845
129	0xbecc5aea	-0.39913112
130	0x3f1bcfc8	0.60863924
131	0x3e94b4de	0.2904424
132	0xbeb23841	-0.34808543
133	0xbea18de7	-0.31553575
134	0xbd8a9a7f	-0.06767749
135	0xbef31108	-0.4747393
136	0x3ce7d059	0.02829759
137	0xbf058340	-0.52153397
138	0x3f4ca4fd	0.7993925
139	0xbe5ea31a	-0.21741906
140	0x3dc4c16d	0.096072055
141	0xbed2be48	-0.41160798
142	0x3e02d646	0.12777051
143	0xbee8fae2	-0.45503908
144	0x3f031120	0.51198006
145	0x3db45b19	0.08806438
146	0x3eaf2798	0.34209895
147	0x3f5a28e4	0.85218644
148	0x3ede5561	0.43424514
149	0x3f9fa9da	1.247371
150	0x3ddc1c83	0.10747626
151	0xc02d30f8	-2.7061138
152	0x3f5335c2	0.825039
153	0xbee676f5	-0.45012632
154	0xbf43e3bd	-0.76519376
155	0xbf16e946	-0.58949697
156	0x3c7a778d	0.015287292
157	0x3f0e6d9b	0.55635995
158	0xbf114252	-0.5674182
159	0x3fa72b74	1.3060136
160	0xc021f62a	-2.5306497
161	0x3f7a7bb0	0.9784498
162	0x3e8e1927	0.27753565
163	0x3f00cdbd	0.5031393
164	0x3dd30d46	0.10305266
165	0x3ee896de	0.45427603
166	0x3ec012c5	0.3751432
167	0xbf289f06	-0.6586765
168	0xbe328060	-0.17431784
169	0x3fd51867	1.6648072
170	0x3ed49e23	0.415269
171	0x3e86c460	0.26321697
172	0x3ea368e8	0.31915975
173	0xbdb0c2cf	-0.08630907
174	0xbf4411ed	-0.7658985
175	0x3f0346e6	0.5128006
176	0x3f5ef940	0.87099075
177	0x3f8454fb	1.0338434
178	0xbfe47c94	-1.7850518
179	0x3e9ef274	0.31044352
180	0xbeb80774	-0.35943186
181	0x3c61fe79	0.013793581
182	0xbd3ecfff	-0.04658508
183	0xbf018d6e	-0.5060643
184	0xbe0fb168	-0.14032519
185	0xbf191352	-0.59795105
186	0x3d9ca064	0.076477796
187	0xbf7281ca	-0.9472929
188	0x3f0198d4	0.5062382
189	0xbc1ba68c	-0.009500157
190	0x3ed02a87	0.40657446
191	0xbe7bb7ea	-0.24581876
192	0x3da1d9bf	0.0790286
193	0x3fd677db	1.6755327
194	0xbfa9301b	-1.3217806
195	0x3fa68be4	1.3011441
196	0x3f6ce6e5	0.9253982
197	0x3f896636	1.0734317
198	0xbfa08ac1	-1.2542344
199	0x3e935508	0.2877581
200	0x3f7b78c3	0.9823114
201	0xbdeaea97	-0.11470526
202	0xbd44da8e	-0.048059992
203	0x3f2260ac	0.6342876
204	0xbf9ef475	-1.2418352
205	0x3fbde863	1.4836544
206	0xbe9a4e44	-0.30137837
207	0x3df422c6	0.11920695
208	0x3f3a5a48	0.7279401
209	0xc000b688	-2.0111408
210	0xbf067ad7	-0.5253119
211	0xbeb2e1b0	-0.3493781
212	0x3f870c78	1.055068
213	0x3e558a2d	0.20853491
214	0x3f0b9b2a	0.54533637
215	0xbfcf8ade	-1.6214254
216	0xbed920c1	-0.42407802
217	0x3f87cff3	1.0610336
218	0xbe0ca0d7	-0.1373323
219	0xbd4e6298	-0.050386995
220	0xbdd1201a	-0.10211201
221	0xbdc30ccd	-0.09523926
222	0x3e52e237	0.20594107
223	0xbeb3ecbf	-0.3514156
224	0x3fabc10f	1.3418292
225	0xbe763318	-0.24042928
226	0x4019aea6	2.4012847
227	0xbf200a86	-0.6251606
228	0x3f5a370a	0.8524023
229	0xbf19e806	-0.60119665
230	0x3ff5e8c1	1.9211656
231	0x3f320294	0.69535184
232	0x3f878266	1.058667
233	0x3f3158c5	0.69276077
234	0xbf6f8145	-0.93556625
235	0x3cb91bb1	0.022596212
236	0x3f9a8016	1.2070339
237	0x3e53bcee	0.2067754
238	0xbf1d3497	-0.6140837
239	0xbdd1c78a	-0.10243137
240	0x3e826b30	0.25472403
241	0xbdad6769	-0.084669895
242	0x3e301038	0.17193687
243	0xbfb78226	-1.4336593
244	0x3f0286dc	0.5098703
245	0x3f4d6c51	0.802434
246	0x3e81936b	0.25307783
247	0xbfddc34c	-1.7325225
248	0x3f8aebf7	1.0853261
249	0xbe00447b	-0.12526123
250	0xbf3f8284	-0.74808526
251	0xbd29a993	-0.041421484
252	0x3dd97548	0.10618073
253	0x3eb6c5d3	0.35697803
254	0xbf0a42d0	-0.540082
255	0x3f74f6c0	0.9568901
